07_rlhf/peft_fine_tuned_with_detoxification_rewards/pytorch_model.bin (torch, 4159 bytes, 1 tensors)

v_head.summary.weight f4 [1, 768]
0.040349294 -0.073825516 -0.0028573475 0.056134287 -0.041021008 0.08136306 -0.040396597 0.04311718
0.060059875 -0.07991478 0.05318363 0.03523107 -0.03374999 0.03252157 -0.05995493 0.078428015
-0.030946199 -0.052309822 -0.08238899 0.020813359 0.047354322 0.017608058 -0.05990932 -0.08181335
-0.035534523 -0.037679277 -0.098794624 0.026855033 -0.03975819 -0.049356963 0.035665456 -0.079512596
0.017788315 0.0005318876 -0.017842641 -0.009425845 0.007839091 0.020197123 -0.028007649 0.029714018
0.065572664 -0.063503906 0.10088845 0.0009735001 -0.033911947 -0.06469794 0.022503216 -0.015391975
0.03697946 0.09815034 0.05211122 0.032895718 -0.039827634 -0.02158359 -0.030474855 -0.04132541
-0.047101613 0.05869662 -0.06675725 -0.04796801 -0.07063136 0.07606467 -0.082665466 -0.022703622
-0.006882577 0.00058782863 -0.084385574 0.0372487 -0.06751664 -0.06098867 0.070675895 0.009808298
0.043838985 0.033920784 -0.020885771 0.043719914 -0.021970527 0.041422434 -0.06219637 -0.059855025
0.033465855 0.034821518 0.054121893 -0.046387885 -0.049449284 -0.03319161 0.10499797 0.0486767
-0.08990152 -0.055654164 -0.11417288 -0.08543395 -0.033406384 0.06442068 -0.0399517 0.035866056
-0.07386736 -0.06270057 -0.031843197 -0.034492835 -0.06304118 0.09697123 -0.062220138 0.07231651
-0.015856579 0.06638556 -0.023113376 0.019406505 0.071320005 -0.008322489 -0.04628245 0.06493138
0.083203554 0.026338745 0.012404698 -0.058381274 0.07647692 0.06792004 0.074985124 0.08363965
-0.05919751 0.0688932 0.07932389 0.060451582 -0.01009035 0.027397344 -0.10234477 -0.07305971
-0.0067630145 0.05142658 0.0044230376 0.016451212 0.07790461 0.08133035 0.013880956 0.01463112
0.008976785 0.0580661 -0.05444287 0.04617525 -0.021493787 0.0084084235 -0.055375345 0.04846384
0.025774753 -0.0116676 -0.020670425 0.07444672 0.031973213 -0.029794833 -0.03711494 -0.030678138
0.043343414 9.7462806e-05 0.014413906 -0.056358203 -0.041081414 -0.0036184094 0.06274296 0.08710827
-0.10261999 -0.056829568 -0.04666405 -0.08376553 -0.06734299 0.011670365 -0.037076894 -0.021041287
-0.039521098 -0.06590823 0.08196653 -0.07610696 -0.026056968 -0.039430548 -0.03190095 -0.060432564
0.056076854 -0.054005194 0.0039063822 0.10230447 0.0046286564 0.056533474 -0.023122404 -0.011010658
-0.011189506 0.043481372 -0.06739956 0.070367604 0.014391776 0.07414862 -0.0034049773 0.0057283803
0.0931496 -0.061451375 -0.042665355 0.10471363 -0.025122425 0.061793648 0.09901714 -0.04390096
-0.032951713 -0.008521546 0.084435135 0.020190109 -0.07401586 0.03785091 -0.049971156 -0.062489215
0.04268753 0.009531913 0.037549365 -0.055195034 0.031781193 0.020443171 0.09418664 0.007902958
0.03509075 0.029524757 -0.06134187 -0.014089274 -0.022651138 0.071919575 0.024437387 0.018867997
0.086552374 -0.026115399 -0.013559256 0.088619255 -0.03548348 0.012448742 0.015942462 0.10122378
0.007671276 -0.08656595 -0.0017794522 0.025047034 -0.03574711 0.02726152 -0.036307532 0.038264994
-0.034788027 -0.0075594517 -0.09141706 -0.06364245 -0.07663582 0.010838024 -0.04623828 -0.08523087
0.052717388 0.008876878 0.018658586 0.03877694 -0.092975035 0.037250336 0.0474935 -0.06942607
00000000: 4d45 253d d531 97bd 5642 3bbb 11ed 653d
00000010: a505 28bd ada1 a63d e776 25bd a49b 303d
00000020: 5801 763d 5caa a3bd 14d7 593d 744e 103d
00000030: 6e3d 0abd 5635 053d 4d93 75bd de9e a03d
00000040: e282 fdbc d342 56bd 8fbb a8bd c780 aa3c
00000050: 9bf6 413d c63e 903c 7a63 75bd c28d a7bd
00000060: a68c 11bd 9655 1abd d654 cabd 16ff db3c
00000070: 7cd9 22bd 872a 4abd f115 123d 80d7 a2bd
00000080: cdb8 913c 5f6e 0b3a bb2a 92bc dc6e 1abc
00000090: 886f 003c 7074 a53c 4c70 e5bc d06a f33c
000000a0: f64a 863d 560e 82bd 9b9e ce3d 7c32 7f3a
000000b0: 41e7 0abd 5b80 84bd aa58 b83c 9f2e 7cbc
000000c0: c677 173d 0c03 c93d 9372 553d a9bd 063d
000000d0: 4d22 23bd 12d0 b0bc 67a6 f9bc d544 29bd
000000e0: 9fed 40bd de6b 703d 06b8 88bd 1b7a 44bd
000000f0: 2da7 90bd cbc7 9b3d 834c a9bd f2fc b9bc
00000100: 3e87 e1bb 8318 1a3a 58d2 acbd 1892 183d
00000110: 2a46 8abd 41cf 79bd 86be 903d fcb2 203c
00000120: 8290 333d 85f0 0a3d a318 abbc a713 333d
00000130: 89fb b3bc 92aa 293d 9fc1 7ebd 8b2a 75bd
00000140: 7e13 093d 02a1 0e3d ebae 5d3d 3901 3ebd
00000150: 558b 4abd edf3 07bd 2d09 d73d 3861 473d
00000160: 4a1e b8bd 9ff5 63bd 79d3 e9bd fff7 aebd
00000170: 22d5 08bd fdee 833d 65a4 23bd 49e8 123d
00000180: c547 97bd 2869 80bd 036e 02bd 5c48 0dbd
00000190: bc1b 81bd da98 c63d 8bda 7ebd ae1a 943d
000001a0: a8e5 81bc 27f5 873d 4358 bdbc 64fa 9e3c
000001b0: 3910 923d 0d5b 08bc ab92 3dbd befa 843d
000001c0: a066 aa3d 5ac4 d73c 133d 4b3c 3421 6fbd
000001d0: ee9f 9c3d a919 8b3d cd91 993d 444b ab3d
000001e0: 1779 72bd e117 8d3d 9074 a23d 149c 773d
000001f0: ff51 25bc 6570 e03c 239a d1bd 54a0 95bd
00000200: 479c ddbb ada4 523d 21ef 903b b1c4 863c
00000210: 748c 9f3d 8790 a63d f36c 633c 5db7 6f3c
00000220: 5d13 133c b8d6 6d3d 7dff 5ebd 4222 3d3d
00000230: bd13 b0bc 7cc3 093c 42d1 62bd 0582 463d
00000240: 9325 d33c 7629 3fbc 0655 a9bc 8677 983d
00000250: 58f6 023d 4b14 f4bc d605 18bd b850 fbbc
00000260: dd88 313d f264 cc38 4e28 6c3c dcd7 66bd
00000270: fc44 28bd d622 6dbb 627f 803d d265 b23d
00000280: 6e2a d2bd 1fc6 68bd ce22 3fbd 438d abbd
00000290: 1feb 89bd 0f35 3f3c f1dd 17bd c75e acbc
000002a0: e0e0 21bd e5fa 86bd 11de a73d f7dd 9bbd
000002b0: 6c75 d5bc ed81 21bd 92aa 02bd 2388 77bd
000002c0: d8b0 653d 8d34 5dbd 1c01 803b 0285 d13d
000002d0: fcab 973b a58f 673d 326b bdbc 0c66 34bc
000002e0: 3154 37bc 8619 323d c808 8abd e41c 903d
000002f0: 7ccb 6b3c 3bdb 973d 0a26 5fbb 23b5 bb3b
00000300: 38c5 be3d 70b4 7bbd dec1 2ebd 1a74 d63d
00000310: 8bcd cdbc 561b 7d3d 80c9 ca3d 7ed1 33bd
00000320: 60f8 06bd f49d 0bbc 54ec ac3d ba65 a53c
00000330: a195 97bd 8e09 1b3d 8eae 4cbd b1f4 7fbd
00000340: 1fd9 2e3d be2b 1c3c 5dcd 193d 3014 62bd
00000350: ff2c 023d 7078 a73c ede4 c03d 697b 013c
00000360: 51bb 0f3d e7dd f13c 9d41 7bbd b3d6 66bc
00000370: e18e b9bc 924a 933d ea30 c83c 0f91 9a3c
00000380: 5f42 b13d f6ef d5bc a427 5ebc 037e b53d
00000390: 2057 11bd cff5 4b3c c499 823c 6a4e cf3d
000003a0: 545f fb3b 7d49 b1bd 823c e9ba 702f cd3c
000003b0: 906b 12bd 8d53 df3c 35b7 14bd c1bb 1c3d
000003c0: e47d 0ebd 47b5 f7bb de38 bbbd f956 82bd
000003d0: 3ef3 9cbd f891 313c 5a64 3dbd 868d aebd
000003e0: 30ee 573d 5370 113c e4d9 983c 92d4 1e3d
000003f0: b269 bebd cf93 183d 8b88 423d 412f 8ebd
